backend/experiments/forecast_model.pt (torch, 835389 bytes, 12 tensors)

lstm.weight_ih_l0 f4 [512, 1]
00000000: ca05 87bd 6da2 913c b7d1 39bd 8977 793d
00000010: b87e 643d fdac 3f3d 7215 313d 83af 63bd
00000020: f47e 353d e52f 09bc 8167 663d 0f89 853d
00000030: 40eb 6ebd 2c93 f0bc c87b 423c 7e80 cd3b
00000040: 037b 243d 93b8 67bd 0c44 8b3d 5b20 843d
00000050: e20b 29bd dc92 f1bc a4af 1f3d 3604 133d
00000060: e0e6 0f3d 497f 77bd 77dc 843d 5194 943c
00000070: 8cbb 86bd b659 1ebc fe06 f1bc 58d6 a1bd
00000080: 7a1e 83bd 4322 933d 55a8 f43c 94a7 163d
00000090: 32b3 203d 4f08 623d bdc1 dbbc 2571 b4bc
000000a0: 4534 31bd 32b7 84bd ef48 2e3c de05 4a3d
000000b0: f140 1b3d 430c a93d 4778 97bc b9e2 843c
000000c0: 83a4 f83c 8783 1d3d a74e 173d 0d95 443d
000000d0: 275b a2bc 738b a4bd 789b b0bc b539 bdbd
000000e0: 9b97 78bd 8144 52bc f40b 7bbd 85df b7bd
000000f0: a608 ecbc 2c5a 75bd e30a 133d 4fd9 343d
00000100: c89b 89bd c2cd 8ebd c95e 183d 3ee2 163d
00000110: 8a79 953d 86f1 88bd 80b9 2fbd cec9 b73c
00000120: ef97 c0bc f343 a7bc af65 1a3c 5ac3 8b3d
00000130: 3e86 a1bd 7349 a1bd 361d 30bd ced5 473d
00000140: 0ba0 7cbd 2938 5dbd a43d 823d af61 af3c
00000150: fc1d 44bc c9d0 8c3d 85ac 053d 8a97 0d3d
00000160: d054 a23d d008 96bd 6b97 40bd 542d 283d
00000170: 90e4 653d 7a1f 823d cf85 2fbb 7d42 85bd
00000180: ca7f 8a3d f44f 3fbd 34a0 933d ef88 41bd
00000190: 6841 9ebd 5b31 843d b856 b1bc cc52 ccbc
000001a0: 978e 04bc 30bd 703d ef51 21bd 5ebd b0bc
000001b0: 77a0 3e3d 72f3 893d 390d 07bd bd73 a83d
000001c0: be65 a4bd ad3e 48bd ee6f afbd 6e36 8cbc
000001d0: e616 a3bd 2538 a73c be3d 1b3d 1da8 793c
000001e0: 6440 b1bd cc4e 873d cb21 10bd 5c81 4c3d
000001f0: 197d 1ebd ff17 45bc d961 2a3d fa7e 773d
00000200: f08b 633d 7827 85bc 22b7 aa3d 473e 5dbd
00000210: c42e 83bd ace7 a3bd 2cea f5bc 49de 833c
00000220: 9587 5fbd 6869 5e3d 0ed9 26bc 326e 31bc
00000230: dbba fa3b 6be0 b7bc 6f69 143d 33b9 d13c
00000240: 12b1 aa3d 3278 b23d d033 f13c e1fa 15bb
00000250: d264 5e3d a8fd 86bd a53f a03d 290b 83bd
00000260: eec4 28bd 0025 cbbc 5b53 94bd 078b 32bd
00000270: ac3c 343d 4d88 61bd f819 743d ba52 aabd
00000280: 56c0 5cbd 8f7a 86bd 2248 663d 8e3c 21bc
00000290: d6f5 adbd e169 7fbd 6a5c d93c beaf adbd
000002a0: 782e 6a3a e102 1fbd c26c 2cbc 3d25 6c3d
000002b0: 8ec6 363c 03c7 8dbd 7975 0dbc 4ec2 1abd
000002c0: 40cd 93bd 0047 683c b497 093b 40bf 9b3d
000002d0: 2841 47ba 9e2a 613c da5a 63bc 324f bbbc
000002e0: e82b 203b 856f 3fbd 7da8 583d c04a 323c
000002f0: d655 6c3d c439 013b b9ab f53c a8e3 60bd
00000300: 5650 723c 7a45 003d bbd8 023d 5bb2 99bd
00000310: b9c1 a3bd 8c1b 44bd 6cd3 323b b34b 90bd
00000320: 4fce 97bd 4b06 d3bb c2ca 733d 4c29 03bd
00000330: 68e3 ad3d 3ac9 fabc d5bc af3c 1af7 67bd
00000340: 91c1 37bd 8969 7a3d f882 553d 9c6c 1bbc
00000350: 4708 b7bd 2b4a 543c 4eaa 6f3d bb6c 5a3d
00000360: ad27 eb3c 3198 9c3d 9170 3d3d 8e55 c63c
00000370: ec00 92bd ef14 3a3d 5862 8dbd d5e6 e1bb
00000380: 093c 47bd 300f 9bbd bc28 65bd b7e5 803d
00000390: a8e1 84bd 46e3 453d e37d 12bd 4457 003d
000003a0: 0205 9abd b327 f2bc 4c0b 41bd fbb2 0dbd
000003b0: 95a7 793d d21b 923d 2151 2dba 0cc9 8a3a
000003c0: ce71 e9bb 9dde 88bc 39ff 913d a9d2 813d
000003d0: 3aad d0bc d2ec 19bd 2993 eabb 8e5c 82bd
000003e0: 07a9 a5bb be81 89bc 1149 14bd a26e 22bd
000003f0: 2fa0 7cbd cac3 3d3d 1876 0bbc 81bf 1ebd
-0.06592901 0.017777646 -0.045366015 0.060905013 0.05578491 0.046795834 0.043233342 -0.055587303
0.044310525 -0.008373235 0.056251053 0.065202825 -0.05832982 -0.029367052 0.011870332 0.006271421
0.040156376 -0.056572508 0.06800088 0.06451484 -0.041271098 -0.029488973 0.038985863 0.035892688
0.03513229 -0.060424123 0.06487363 0.018137129 -0.065787405 -0.009664943 -0.02942228 -0.07902211
-0.06402297 0.07184269 0.029865423 0.03678091 0.039233394 0.055183705 -0.02682578 -0.022026608
-0.04326274 -0.06480254 0.010637506 0.049322 0.03790373 0.08254292 -0.01848997 0.016221391
0.030351883 0.038455512 0.036940243 0.04799371 -0.019818855 -0.0803441 -0.021558508 -0.09239522
-0.060691457 -0.012833715 -0.061290696 -0.0897818 -0.028812718 -0.059900448 0.035899054 0.044152554
-0.06719166 -0.06972839 0.03719977 0.036836855 0.07298572 -0.06686692 -0.042901516 0.022435095
-0.023509948 -0.020418143 0.009423657 0.0682437 -0.07886933 -0.078753375 -0.042996608 0.048787884
-0.061676066 -0.054008637 0.06359413 0.021408884 -0.011970039 0.0687576 0.03263523 0.034568347
0.07926333 -0.073258996 -0.047019403 0.041058853 0.056126177 0.0635366 -0.0026782637 -0.06506822
0.06762655 -0.04670711 0.07208291 -0.04724973 -0.07727319 0.06454726 -0.021647796 -0.024941824
-0.008090637 0.058774173 -0.03938478 -0.021574672 0.04653975 0.06735887 -0.032971594 0.082252
-0.08027218 -0.048887897 -0.08566271 -0.017115798 -0.07963352 0.020412514 0.03790068 0.015237835
-0.0865486 0.06606826 -0.035188477 0.049928054 -0.03869352 -0.012029647 0.04159722 0.06042383
0.055553377 -0.016254172 0.08335711 -0.05401447 -0.06405404 -0.08003172 -0.030018888 0.016097205
-0.05457266 0.054299742 -0.010183586 -0.010829495 0.0076516694 -0.022445878 0.03623336 0.025601005
0.08334555 0.08714332 0.029443651 -0.0022885131 0.05429537 -0.0659135 0.07824639 -0.06398613
-0.04120343 -0.024797916 -0.07242461 -0.043589618 0.044003174 -0.055061627 0.05959508 -0.0831656
-0.053894363 -0.06566345 0.056221135 -0.0098410975 -0.08494155 -0.062356833 0.026533324 -0.08480786
0.0008933316 -0.038821105 -0.010523977 0.0576527 0.011155738 -0.06922724 -0.008633965 -0.03778296
-0.07216883 0.014177084 0.0020994963 0.076048374 -0.00076009566 0.013743071 -0.013876641 -0.022864912
0.0024440233 -0.046737213 0.052895058 0.01088208 0.057699047 0.001971827 0.02998911 -0.05490461
0.014789661 0.031316258 0.03194497 -0.07504722 -0.07995934 -0.047877833 0.0027286662 -0.070456885
-0.07412397 -0.006439959 0.059519537 -0.032021806 0.0849064 -0.03061353 0.021452347 -0.05663214
-0.044862334 0.061135802 0.052126855 -0.009486344 -0.08937126 0.012957136 0.058512025 0.05332635
0.028705442 0.07646216 0.04624993 0.024210718 -0.07129082 0.04543012 -0.06903523 -0.0068939724
-0.04864124 -0.07571256 -0.05594705 0.06293815 -0.06488353 0.048312448 -0.035764586 0.031333223
-0.075204864 -0.029559946 -0.047129914 -0.034594517 0.060950834 0.071342126 -0.00066115154 0.0010588481
-0.0071241623 -0.016707713 0.07128758 0.06339008 -0.025473226 -0.037579365 -0.007158656 -0.0636531
-0.00505555 -0.016785499 -0.036202494 -0.03965629 -0.0616762 0.046329297 -0.008512042 -0.03875685

lstm.weight_hh_l0 f4 [512, 128]
00000000: c2dd d93c 629a 5f3d 0a46 2b3d 606d 27bd
00000010: 72e5 ca39 a498 c3bc a70e 72bd 1dc3 1bbc
00000020: 680f 94bd 2806 063d 9200 223d 2d12 193d
00000030: 866f ad3c a733 2fbd eddc a33d a9c5 463d
00000040: a835 7ebd 4aee 1f3c 8c3a 843c ec0a ac3d
00000050: 593a 783d 942f 88bd 2634 6bbd 8c2e d2bb
00000060: 6b6e be3c bf06 673d 02e4 383d af07 7b3d
00000070: ae4a 683d 451a 91bd b51f bcbc e486 8cbd
00000080: 178b 6ebc a00c 6a3d 9c81 a5bd a8c2 5b3c
00000090: 8cda 8fbd 53eb 2abd 2b41 09bd 3b04 9c3d
000000a0: 04f3 0fbd 279e 66bd 51a2 573b a11a 453d
000000b0: bf83 05bd 16fc 0fbc 8347 a1bd 13bf 443d
000000c0: e3a8 463d f451 66bd 4031 b53a a8ab 353d
000000d0: f8a1 4dbb dc63 2bbd 04b8 acbd 34f7 d6bc
000000e0: ebfd b03d a6ee 913c 93c1 0a3d 41be a8bd
000000f0: 6038 acbd 6251 ae3d 45ec b0bd fbcf 17bd
00000100: 89db a4bd 11c1 97ba fc73 9d3d eeaf 83bd
00000110: 2e05 6cbd f096 9bbd 7b6e 3dbd 776b 3fbc
00000120: c11f b1bd 263f 563d 4efa eebc 8599 f2bc
00000130: de64 0a3c bb77 073d 886d eebc 8d10 873c
00000140: a6e4 b13c 1033 abbd 3e32 453d 1b4a 58bc
00000150: dd62 b23b 4527 a43d fdcb 283d cd2b 00bd
00000160: 81c7 a0bb fb6f 2ebd c840 6cbc fc4a 9dbd
00000170: 94c9 1bbd 1fb7 27bd 3299 963d 8c8a 4d3c
00000180: 4a5f 03bd 3f19 6ebc 1590 21bd 9a10 a1bc
00000190: 8a6e 74bb 6ddd 273d d54f 513d 9587 223c
000001a0: c41d 71bc b129 fc3c f17f f73c 8b20 2cbd
000001b0: 9bf7 a73d edb0 05bd ca57 72bd e3d7 a7bd
000001c0: 5e61 e6bc 9c48 9a3d 8eb3 0b3d 6dda 9f3c
000001d0: 73db 733d 3c6f 903c e59b 4d3d 54ce 56bd
000001e0: 5ff8 813d 801e 3fbd cbcc ba3d 376a 65bd
000001f0: d027 65bc ba9d ce3b d0f9 7bbd 13d0 a5bb
00000200: 4ab4 60bd 0999 b33c 043c 4ebd cd5e e23c
00000210: 5ece d3bc aa31 913d 805d 7cbd a7ef 893d
00000220: 96a8 96bd 667e 033d aa2d dd3c d518 79bd
00000230: 3e66 0abd d4cc a8bc cab0 873d 3ef5 88bd
00000240: 17f8 bdbc c2fb 15bd 5835 853c 7d8c 40bd
00000250: a47a 223c 7796 36bd 94d7 93bd 9fa3 7f3d
00000260: 4f08 a7bd 69a4 3fbd 96c7 2fbd b8bb 833c
00000270: d66a 04bc f5b1 94bd 7cb1 3fbd 6953 843b
00000280: 02c3 28bd f78a 8e3c e4a6 893d 9e3f 3bbd
00000290: e9ff 893d 52ec ab3c 8518 06bd d1ac 6dbd
000002a0: 824b febc d99a b3bd 6a26 993d 7f01 bb3d
000002b0: 6e7f 023d 665a d73b 1ab5 1f3d 02cc 4cbc
000002c0: 61c3 86bd 5fb8 823d 1615 cdbc eaab 8b3d
000002d0: 4613 ae3c d3ab db3c 7180 833c afd8 4bbd
000002e0: c90f 103c ae40 013d 8a14 883b 1d2a 93bb
000002f0: 66e8 9b3c c083 8d3d fc78 a93d 707f 35bd
00000300: 1234 893d d49b 043c 2638 42bd 93d2 6abc
00000310: f5fe a33d 727a 66bc 9827 2a3c 29b8 143d
00000320: 5fb5 66ba 430b 7d3c 935a 76bd 382b 90bc
00000330: 532c 20bb c79c ba3c 7218 9dbc 4eea f83c
00000340: 5250 76bd ba3c 6dbc 21db 243d 151a 35bc
00000350: 9cbe 7a3d ff1a 2fbd b865 dabc fabe f53b
00000360: 544c 53bd 93a5 f8bc fc09 3e3d 3c56 383b
00000370: 2fa8 9a3b 8f4a 523b 8020 03bd 44fd f7bc
00000380: f07c 5b3d 3cbf 2dbd cbeb 563d 20cc be3c
00000390: a5e2 ab3d 0a14 003d b704 91bd c8e9 b53c
000003a0: 823e 4cbb 662d 533c 1fb9 aabd 4a18 23bd
000003b0: ca24 953d cf93 963d 2af4 543d fd84 a23d
000003c0: 07cc b03d 9bff bc3c fe89 b6bd 0714 aebd
000003d0: a154 2fbd b849 96bb 889e 49bd bd39 13bd
000003e0: 80c8 a73d fbd6 2f3d 5074 57bd 431f 99bc
000003f0: ec30 f0bc 0c65 5c3c 6f3a 983d 9577 8bbc
0.026595 0.05459059 0.04181484 -0.040875793 0.00038699392 -0.023876496 -0.059096005 -0.009506968
-0.07229501 0.032720715 0.039551325 0.03737085 0.021171343 -0.04277387 0.080011226 0.048528347
-0.06206289 0.009761402 0.016141199 0.08400521 0.06060252 -0.066497 -0.05742278 -0.00641424
0.02324601 0.056402918 0.04513932 0.061286625 0.056711845 -0.07085089 -0.022964338 -0.06861666
-0.014559529 0.057140946 -0.08081362 0.013413109 -0.070241064 -0.04172833 -0.033509415 0.076179944
-0.035143867 -0.05630317 0.0032903145 0.0481211 -0.032596346 -0.008788129 -0.07874968 0.048033785
0.048500907 -0.0562305 0.0013823882 0.044353157 -0.0031377058 -0.04184328 -0.08433536 -0.026240923
0.08642181 0.017813992 0.033876013 -0.08239413 -0.0840919 0.08511616 -0.08638815 -0.03706358
-0.080496855 -0.0011577924 0.07688138 -0.0643004 -0.057622127 -0.075971484 -0.04624794 -0.011683336
-0.08648635 0.052306317 -0.029172089 -0.02961422 0.0084469 0.03307317 -0.029104963 0.016487384
0.021715473 -0.08359349 0.048143618 -0.013201262 0.0054439143 0.080153026 0.041210163 -0.03129177
-0.004906595 -0.04258726 -0.014419742 -0.07680318 -0.038034037 -0.040946122 0.073534384 0.012545239
-0.032073297 -0.014532386 -0.039444048 -0.019661237 -0.0037297332 0.040982652 0.051101524 0.009920021
-0.014716569 0.030781599 0.030212374 -0.042023223 0.08201524 -0.032639433 -0.059165753 -0.08195474
-0.0281226 0.075333804 0.034106784 0.019513333 0.059535455 0.017631166 0.0501975 -0.052442864
0.06346201 -0.046659946 0.091210924 -0.056009497 -0.013986543 0.0063054236 -0.061517537 -0.005060205
-0.054859437 0.021923559 -0.050350204 0.027633095 -0.02585524 0.07089551 -0.061612606 0.06735163
-0.07356374 0.032102965 0.026999313 -0.060814697 -0.033788912 -0.020605482 0.06625517 -0.06687401
-0.023189588 -0.036617048 0.016260788 -0.04700898 0.009916935 -0.04457709 -0.07218853 0.0624119
-0.081558816 -0.046787653 -0.04291495 0.016080722 -0.008082112 -0.07260505 -0.04680012 0.0040382636
-0.0412016 0.017400248 0.06721285 -0.045714967 0.06738264 0.02098671 -0.032738227 -0.05802614
-0.031041864 -0.08769769 0.0747803 0.09131145 0.031859808 0.0065720556 0.03899107 -0.012499811
-0.06580234 0.06382822 -0.025034469 0.068198994 0.021249425 0.02681533 0.016052457 -0.049767192
0.008792826 0.031555824 0.004152839 -0.0044911043 0.019031715 0.06909895 0.08275029 -0.044310987
0.06699385 0.008093793 -0.04741683 -0.014332431 0.080076136 -0.014067279 0.010385416 0.03630844
-0.000880083 0.0154445795 -0.060144972 -0.017598733 -0.0024440482 0.022779835 -0.019176695 0.030385163
-0.060135193 -0.01447981 0.04024804 -0.011053582 0.061216936 -0.042750355 -0.026659831 0.007499573
-0.051586464 -0.03035239 0.04639624 0.0028127572 0.004719756 0.0032087897 -0.032013416 -0.030272134
0.053585947 -0.042418703 0.052470963 0.023290694 0.083928384 0.03126911 -0.070809774 0.022206202
-0.0031165187 0.012889242 -0.0833609 -0.039818086 0.072824076 0.07352411 0.051990665 0.07935522
0.08632665 0.023071101 -0.08913039 -0.08499914 -0.042805318 -0.0045864247 -0.049223453 -0.035943735
0.08192539 0.04292963 -0.05260116 -0.018691665 -0.029320203 0.013451826 0.0743302 -0.017024795

lstm.bias_ih_l0 f4 [512]
00000000: d1af 07bd 3692 743d cd91 b43c 7967 dbbb
00000010: f32f 4c3d 4d60 4cbd e267 6b3d 3fe7 02bd
00000020: 29c0 8cbd 331a 6b3c 9854 abbd bd78 92bd
00000030: 4314 e63b 1529 1d3d 8171 85bd 3275 3cbd
00000040: de4b 9a3d e250 a73d d8b5 843d bb75 0abd
00000050: f19c 663d e634 923c 70d6 953d 00e4 9fbd
00000060: 3cbb 0c3d b8d7 013d a136 c2bb 203b 2fbd
00000070: bac0 4a3d 7e15 9a3d 0ec8 6b3b 33d9 9dbd
00000080: 05b1 b83c 9afe 8bbd 70d4 9f3c c0ca 893d
00000090: d3c6 2bbd 39f0 67bd 0cb1 363d 92b7 9d3c
000000a0: 35fa e73c f4b4 87bd ad5b b7bc 5e04 d93a
000000b0: 31fb 353d 3897 8e3d fe59 3a3d 6694 153d
000000c0: c6cb 52bd d6ce 863d 8c69 493d 9642 28bb
000000d0: 55ea 873d a863 b7bd d552 39bd 5fcc 7bbd
000000e0: 41c1 0d3d 0757 b23c 1084 2fbd 8620 553d
000000f0: 3d24 55bd 944f 053d 58a6 90bd 92f5 333d
00000100: de3d 2abd b29b 413d cb5a ab3d 76fa 5f3c
00000110: e27b 35bd f457 3f3c 91a6 323d 5268 48bc
00000120: 406b 373d 31a5 20bd c793 5a3d 7e2a d4bc
00000130: baf3 b4bd 23ec 513d b2cf aabd e900 403d
00000140: 8dec 48bd 575a 96bd b2a7 d53c 4a33 a5bd
00000150: 7a98 773d ca57 eebc 7d7b 9fbd 28aa 293c
00000160: be11 b1bd 9f26 39bd b99a 31bd 0c43 d4ba
00000170: 913a 493d 4513 0b3d 61f6 0bbd 3cac 0fbd
00000180: 02de a4bd 0e10 36bd 0171 b03c 7d5a 21bd
00000190: 25ab 3f3d 02d6 663c 37d1 5b3d 5c1c 0f3d
000001a0: 6181 b73c 9cf0 8a3d ae79 cabb 33c5 7dbd
000001b0: 355c eabb f74c 7f3d 95aa 58bd 90cb 5b3d
000001c0: 8c2a 4fbd 85d2 95bd 9159 5dbd 79c3 933d
000001d0: 205a da3c adb2 a7ba 4406 55bd 2150 1a3d
000001e0: 477b 963d ecc5 043d 086b eebc abfe 963c
000001f0: 9d8f 843d 0a27 86bd f82b 3a3d 0b81 b9bd
00000200: 3896 9a3c 05ca 93bd 9fa9 4fbd e447 90bd
00000210: f213 923d a1db 52bd 9366 83bd c84e 6fbd
00000220: 017a 6939 eda7 69bc 11a5 aebd 78c7 e93b
00000230: 104e 92bc 82c1 96bc 6440 953c c42a b5bd
00000240: df7d 9dbc 2ed0 07bb fa59 fc3c 0eb0 0bbd
00000250: 110d ac3d 9f2e 5c3d 0e44 11bd 68f2 ebbc
00000260: d7ed 83bb 782a 50bd 78a1 a2bd cee7 abbd
00000270: e9b5 c7bc 2595 193a d68f b3bd 4326 babd
00000280: 915d a53d dff2 69bd 1f25 12bd 3e51 023b
00000290: 29eb a7bc 546e 783d b161 0f3d 3b68 f4bc
000002a0: 212e a2bd fdd6 a7bd a8cd 33bd ae26 9c3d
000002b0: 7304 813d 20e9 273d c481 813a cedb 8ebc
000002c0: 6dbe 86bd b33c 453c bb78 803d 9fb3 13bd
000002d0: 6227 353c 27c1 a0bd 5779 203d 217a 7b3d
000002e0: f266 e93c 3875 223d 0be1 f9bc 614a 7b3d
000002f0: c1c8 17bd be1e 1e3b f5be 993d 06bc 0e3d
00000300: 991e 483d 9830 b2bc 1ec9 29bd dad5 a5b9
00000310: 76e1 c9bc 2a6d 30bd 4b7d 34bb 7b87 553d
00000320: 205f 683d ca1e 083c 5b7d a4bd d987 b1bd
00000330: aae9 903d 4601 3e3d 7bc6 933d 7dc0 cebc
00000340: 5040 49bd 90c5 873c e4b5 7bbd 6b76 b6bc
00000350: 9ac1 e63c 2427 6abb eae7 6bbd 4938 3e3d
00000360: ba0a 9abc f5ff a4bb 7eb2 b2bc 96ce 96bc
00000370: e437 0eba 284a 63bc 806f 9f3d 3937 843b
00000380: 9b71 fe3c c054 88bc 1c51 9c3d fc38 6fbd
00000390: 02cd b9bc 0500 9d3c 7417 363d e5d9 433c
000003a0: ff0d 64bd 764b a0bc 3b3d a4bd 3d94 0cbd
000003b0: 006e 9a3d b44a 073c dd24 793d 21cb f23c
000003c0: 72ed 95bd c5e6 4b3d 54d2 0f3d 10cf 9ebd
000003d0: afe8 cabd 06f7 09bd 19a0 743d 8743 a6bd
000003e0: 7dce 9e3d a6ee a3bd 6c2a 59bd cd2e 913d
000003f0: 7f03 bcbd 54f1 aebd 8952 3c3d c8a9 4fbd
-0.033126656 0.05970975 0.02204218 -0.0066956845 0.049850415 -0.049896527 0.057472117 -0.031958815
-0.06872589 0.014349508 -0.08365744 -0.07151935 0.0070214584 0.038369257 -0.0651579 -0.046010204
0.07534002 0.08169724 0.064799964 -0.033803683 0.056302015 0.01784749 0.07316291 -0.078071594
0.034358248 0.031699866 -0.0059269224 -0.042780995 0.049500205 0.075236306 0.0035977396 -0.07707443
0.022545347 -0.06835671 0.019510478 0.067281246 -0.04193766 -0.05662558 0.04460244 0.019252572
0.02831755 -0.06626311 -0.022382582 0.0016557088 0.044429008 0.069624364 0.04549598 0.036518477
-0.051463865 0.065824196 0.049172923 -0.0025674454 0.06636492 -0.08954555 -0.04524501 -0.0614742
0.03460813 0.021770013 -0.042850554 0.05203297 -0.052036513 0.032546595 -0.070629776 0.043935366
-0.041562907 0.047267623 0.08366927 0.013670554 -0.044307597 0.0116786845 0.04361588 -0.012231903
0.044780016 -0.03922004 0.053363588 -0.025899168 -0.0883555 0.05125059 -0.08340396 0.046875868
-0.049053717 -0.0734145 0.02608094 -0.08066423 0.060448147 -0.029094595 -0.077872254 0.01035551
-0.08645962 -0.045202848 -0.043360446 -0.0016194298 0.04912812 0.033953924 -0.034170512 -0.035076365
-0.08050157 -0.044448905 0.02153826 -0.039392937 0.046794076 0.014089109 0.05366632 0.034939155
0.02240056 0.06784174 -0.006179056 -0.061955642 -0.007152105 0.06232926 -0.052897055 0.05366093
-0.050577685 -0.07315544 -0.054040495 0.07215018 0.026654303 -0.0012794338 -0.05200793 0.037674073
0.07347732 0.032415316 -0.02910377 0.018431982 0.064727046 -0.06550415 0.045452088 -0.09057816
0.018870458 -0.072162665 -0.050698873 -0.07044962 0.071327105 -0.051478986 -0.06416049 -0.05842474
0.00022266062 -0.014261228 -0.08527578 0.007134374 -0.017859489 -0.018402819 0.01821918 -0.088460475
-0.01922506 -0.002072345 0.030804623 -0.034103446 0.0840093 0.0537554 -0.035465293 -0.028802112
-0.0040261555 -0.05082175 -0.07940954 -0.083938226 -0.024378734 0.0005858711 -0.08767669 -0.09089329
0.08074487 -0.057116386 -0.035679933 0.001988485 -0.020497875 0.060652092 0.035005275 -0.029834857
-0.07918955 -0.08195303 -0.0438973 0.07624565 0.06299677 0.04099381 0.0009880592 -0.017438795
-0.065792896 0.012038398 0.062730275 -0.036059972 0.011056753 -0.07849341 0.03917822 0.061395768
0.028491471 0.03966257 -0.030502817 0.06135023 -0.03705669 0.002412721 0.07507125 0.034847282
0.048857305 -0.021751687 -0.041451566 -0.00031630584 -0.024643641 -0.043072857 -0.00275405 0.052131157
0.056731343 0.008308122 -0.08031722 -0.08668489 0.07075818 0.046387933 0.072155915 -0.02523827
-0.0491336 0.016573697 -0.06145276 -0.022273263 0.028168488 -0.0035728896 -0.057594217 0.046440396
-0.018803943 -0.0050353953 -0.021813627 -0.018409055 -0.00054251985 -0.013872661 0.07784939 0.0040349034
0.03106003 -0.016641974 0.07632658 -0.058403954 -0.022680763 0.019165048 0.04445596 0.011953806
-0.05567741 -0.019567233 -0.08019491 -0.03432106 0.07540512 0.008257557 0.06082617 0.029637875
-0.0732068 0.049780626 0.035112694 -0.07754338 -0.09907662 -0.033682846 0.059722994 -0.081183486
0.07754228 -0.08004503 -0.053018972 0.07089005 -0.09180354 -0.085421234 0.04597715 -0.050699025

lstm.bias_hh_l0 f4 [512]
00000000: 20f7 c33c b550 b03a e396 683d 7491 38bd
00000010: 3b77 00bd 7ff3 e2bc ef72 25bd 061d 86bd
00000020: 3636 9a3d 0179 aebc 0c24 6ebc 073c 823c
00000030: 5456 98bd 9edf 563d ff7f efbc 1703 91bd
00000040: d68d f23c 662d 45bd 4189 a13c 3cd1 a23c
00000050: 07ff a63c 2c7c 143d ff60 5c3c 35a9 9c3d
00000060: ccf7 b3bd 5c59 aebc 8251 773d 082f 3a3a
00000070: ca65 a6bd 741f ba3c 9cef b1bc d185 8c3d
00000080: 12c8 8ebd d795 aebc 903f 963d ccf6 b4bd
00000090: 51ee 17bd 77af 0ebd 00cb d83b 25e1 953d
000000a0: 4194 b0bc 1125 463d f83e 6cbd f880 80ba
000000b0: 799f febc 6f39 1dbb e57b 8b3d 9132 13bd
000000c0: 13a5 8a3d c57b 2fbc d691 88bc 48a5 92bc
000000d0: 45f3 8b3d 4881 38bd a09c f7bc f92e 8dbd
000000e0: 72a3 b43d 65f4 01bd eaf3 7a3d 4c6b 833d
000000f0: 7cce a9bd d620 96bc 2813 6abd 6c55 98bd
00000100: 4ad7 2dbd c04d 4fbd d9c6 45bd 0d00 233d
00000110: e954 93bd 13d6 28bd ce6b e3bb e5a5 533d
00000120: 87f0 6d3d d5c4 afbc 8e61 c3bc d0bf d73c
00000130: 988b 3dbd c8fe a139 ac85 c0bc 8fda a8bd
00000140: b3e0 933d e77b 6f3c 6678 483d f65a 67bd
00000150: eed3 e43c c1bc 533d dbc8 8fbd fef1 5d3d
00000160: d4cc d43c 9871 c63b 531f 733d 5ae9 f33b
00000170: 0162 bdbc 9c53 d93c 9484 c8bc 87ea 1c3d
00000180: f0c1 44bd e034 a7bd 22fe 78bd 0ffa 80bc
00000190: e2fe 8bbd d626 aebd b435 613d b71c 17bd
000001a0: 87f1 3f3d 72aa acbc 70a4 98bd 5526 62bd
000001b0: 88ad dbbc 4060 6ebd 6105 8d3d 99df 4fbc
000001c0: 92b0 26bc da4c afbc 9b40 c43c a63a f63c
000001d0: 8a98 463d 2d8d 263d ba5e 333d f027 283d
000001e0: 3a70 e83c d208 a63c 5197 a3bd cbd3 523d
000001f0: 0533 8dbd 3831 8dbd 9268 09bd 36ba afbd
00000200: 57c7 b4bc afc3 56bd 57b3 913d 5611 653d
00000210: fbd3 733d fa35 8cb9 05e4 063d ac62 4d3d
00000220: 2c3e 94bd f493 453d f475 a73b f998 783d
00000230: 1f51 933d 0e7c 9dbc 5b79 063d 346c 77bd
00000240: 5d52 d93c 143b 313d 8c91 85bd 354a 1dbd
00000250: d9c3 3ebc 6697 b13d e15d c6bb 6150 033d
00000260: 0c19 f7bc d7c1 2d3d af06 91bc 2bc3 953d
00000270: 5e69 953d 135c a23b cb9d 853d 9b98 3c3d
00000280: f975 8ebd 0146 a13c 3050 893d e34d a03d
00000290: eefb 403d a232 e93c 1211 38bd 91da 9bbc
000002a0: 1c58 09bd f8a1 883d b754 80bd d353 6c3d
000002b0: 6dc9 fa3c 2b5e d33c b1a3 87bd 48be 2b3d
000002c0: 459c b8bd fff4 703d ecbd a2bd 54a0 a23d
000002d0: cb3b 883d 0d2b 8e3d d1d0 06bd 5ece 63bd
000002e0: e200 973d 9997 583d 612a 843c 31ae 2b3d
000002f0: fcd1 133c 4fb6 7b3d 18c5 883c d143 05bd
00000300: 7c8d 08bd 7a69 923d f834 3dbd 9562 6bbd
00000310: 4400 6f3d c4d3 c9bd 438a 2a3d 66ef 4a3d
00000320: a91b 38bd 546a 8bbd 68e5 b7bd 6536 b4bd
00000330: 0274 94bd 0357 6d3d 2efd f7bb bb87 e9ba
00000340: 32e1 903d df18 40bd d287 e4bc 8479 41bc
00000350: 718f afbd 40a7 82bc da21 1f3d 5cdb d93b
00000360: e6ab b2bd 43d9 c4bd a9de 62bd 8395 93bd
00000370: b7ae 60bd 1cf8 7f3d 966b 78bd 5468 78bd
00000380: 0935 15bd a5e3 543d f0fa 4abd 0a8a babd
00000390: e3ff 793d 6ff5 dcbc 513f 8e3d c6d8 cebd
000003a0: 2cb3 183c 91de 483c 306d 123d 34f2 993d
000003b0: 64e4 183c 79b4 d2bb eeaf efbb 4ec0 80bd
000003c0: 16eb 9bbd cf7b 71bd 1469 a43b b903 d3bc
000003d0: 2e3a a33c 43a9 e23c c65a 16bd 0804 423d
000003e0: e164 a1bd c6bf 99bd 7a0b 783c 86ce 7cbd
000003f0: a61d ea3c 6623 0d3d 9fc5 9cbd 2257 f6bc
0.02392155 0.0013451787 0.05678452 -0.04506059 -0.031363707 -0.027703999 -0.040392812 -0.065485045
0.07529871 -0.021297934 -0.014534961 0.015897764 -0.07438341 0.05245935 -0.029235838 -0.070806675
0.029608648 -0.048139 0.019718768 0.019875161 0.020385278 0.036251232 0.01345086 0.07649461
-0.08787498 -0.021282844 0.060380466 0.0007102345 -0.081248835 0.022720076 -0.0217207 0.06861461
-0.06971754 -0.021311684 0.07336342 -0.08836135 -0.03709251 -0.034835305 0.0066159964 0.073183335
-0.021555068 0.048375193 -0.05767724 -0.0009804061 -0.031081902 -0.0023990532 0.068107404 -0.035936896
0.06769767 -0.010710661 -0.016671102 -0.017901078 0.06833509 -0.045045167 -0.030226052 -0.06893725
0.08820237 -0.031727213 0.06126777 0.0641695 -0.08291337 -0.018326204 -0.057147175 -0.07438168
-0.042441644 -0.050611258 -0.04828534 0.03979497 -0.0719393 -0.041219782 -0.0069403416 0.05167188
0.058090713 -0.021456162 -0.023850229 0.02633658 -0.046275705 0.0003089814 -0.02350124 -0.08244812
0.07220592 0.014616943 0.048942946 -0.05648323 0.027933087 0.05169368 -0.07020732 0.05418586
0.025976576 0.006056022 0.059356045 0.007443589 -0.023118021 0.026529126 -0.02447728 0.0383096
-0.048036516 -0.08164382 -0.060789235 -0.015744237 -0.068357244 -0.08503501 0.054982856 -0.03689262
0.046861198 -0.021077368 -0.07453239 -0.055212338 -0.026816145 -0.05819726 0.068857916 -0.012687587
-0.010173934 -0.02139895 0.023956588 0.030057263 0.048485316 0.04066198 0.04379151 0.041053712
0.028373826 0.020267878 -0.07987846 0.051471513 -0.06894497 -0.06894153 -0.03354699 -0.08580439
-0.022067709 -0.052432712 0.071142845 0.055924736 0.059528332 -0.00026743097 0.0329323 0.05014293
-0.07238421 0.048236802 0.0051104967 0.06069276 0.07193207 -0.019224193 0.032830577 -0.060405925
0.026528532 0.043269232 -0.065219015 -0.038400847 -0.011643373 0.08671455 -0.0060536717 0.032059077
-0.03016331 0.04242119 -0.017703382 0.07312616 0.07295488 0.0049548238 0.06524237 0.046043973
-0.06956095 0.0196867 0.06704748 0.07827356 0.04711526 0.028466526 -0.044938155 -0.019025119
-0.033531293 0.06671518 -0.06266158 0.05769713 0.030613625 0.025801739 -0.066230185 0.041929513
-0.09014181 0.058827396 -0.07946381 0.079407364 0.066520296 0.06941805 -0.032913987 -0.05561673
0.07373215 0.05287895 0.01613349 0.04191417 0.009022232 0.06145316 0.016695544 -0.032535378
-0.033338055 0.07149024 -0.046193093 -0.057467062 0.058349863 -0.09854844 0.041635763 0.049544714
-0.044948254 -0.0680739 -0.08979303 -0.087994374 -0.07248689 0.05794431 -0.007568023 -0.001781694
0.070742026 -0.04689872 -0.027896795 -0.011808757 -0.08572281 -0.015948892 0.038850643 0.006648464
-0.08724193 -0.09611752 -0.055388127 -0.072062515 -0.05485412 0.062492475 -0.060649477 -0.06064637
-0.03642753 0.05197491 -0.04955572 -0.0910836 0.06103505 -0.0269725 0.069456704 -0.1009994
0.009320062 0.012260095 0.03574866 0.075169 0.009331796 -0.0064302054 -0.0073146736 -0.06286679
-0.076131985 -0.058955964 0.005017409 -0.025758611 0.019925203 0.0276686 -0.036707662 0.047367126
-0.07880569 -0.07507281 0.015139455 -0.061720394 0.02857859 0.034457587 -0.07654881 -0.030070845

lstm.weight_ih_l1 f4 [512, 128]
00000000: 1014 4a3d f51d ca3c b2aa deba e050 a1bd
00000010: 789a 323d 134c ff3c 17c5 853d 6bbe 8e3d
00000020: 98f5 78bc 811e 7abd a953 733d c69e 063d
00000030: 1194 643d 5067 853d 13cb 0c3d 8567 a1bd
00000040: 884b 913d f395 0ebd 04c4 9937 c794 a8bd
00000050: db13 92bd e0af 95bd 2292 b03d d6b0 48bd
00000060: 395f 9c3d 6692 5d3c 06af c33b d923 8b3d
00000070: 1ca1 5d3d f2ea b9bd 2951 873d de96 573c
00000080: e4cb 9b3d 7dc3 733d 0d73 d03c bd3a 4bbd
00000090: 0c08 453d 8fd0 653d 0855 543b c5c7 0e3d
000000a0: 086e 553d 8c07 a3bd 8e14 1b3d 0eb2 373c
000000b0: a667 66bd 2b4e f3bc 387a 85bc be5b d03c
000000c0: 2a07 9c3d 650d 5c3c 7fa8 12bd 6282 57bd
000000d0: 85b5 673d 8133 bd3c 4da6 b33d 002e af3d
000000e0: 5b41 5d3d 3a47 303c 5ed1 73bd 954e 7d3d
000000f0: eccd bcbd 97a6 07bd ca20 a8bd cddd 963d
00000100: d993 6e3d c31d a33d e4fb fa3b 8783 c33a
00000110: cd66 c5bc 6e89 be3c 3b27 a3bc 4b34 64bc
00000120: 710b f5bc 303a e4bc 1e60 e7bc 854f 153c
00000130: f60e 9d3c 5679 533d f837 bf3d e049 8fbd
00000140: 277a a23d 562a 73bd 1748 42bd c4e8 91bd
00000150: 9888 a03d 94f2 a6bc 91bd 8bbd 1f87 be3c
00000160: 43d9 3dbd c207 443d 83ad 3abd 424f 80bd
00000170: 8b49 533d ef90 903d 2ff1 c7bc aa02 45bd
00000180: ad50 cc3c c236 84bd 44d9 703d 0acd aebc
00000190: 9dc1 d13c a908 87bd 8655 943c 45eb a73b
000001a0: 87e9 13bd c18c 5f3d cbfb bd3d ee9b 893d
000001b0: e8f6 99bd 49ff b4bd c23e 983d 3cf3 7cbd
000001c0: 633f 953c 6b64 70bd 31c5 55bd e2a8 37bc
000001d0: a54b 823c ebc0 9c3d 731a 0f3d 602d 86bc
000001e0: f0aa 54bd 2b7b b23d 8102 943d 2906 e23c
000001f0: 8e8f bcbc d849 2abd 5646 333d 5861 12bc
00000200: e9fe 88bd 1604 ad3d 7e42 a63d 3788 a4bd
00000210: 733c 5e3d 0dbf 153d d214 6f3b 8a81 0339
00000220: 096c b4bd dea2 b7bd e770 063d 7cda 8e3c
00000230: 67f1 8dbd ba12 2fbd 8e82 0ebd 12fb 55bd
00000240: af0c abbd c944 af3c be18 1abd cf93 04bd
00000250: a02c aebd cb66 8f3d 7b38 b13d 808e 4ebd
00000260: 921f a7bc 2d3f 8abd 3181 b0bd d5d4 82bd
00000270: 7682 5fbc 320a 2bbc a084 e9bb 3855 e03c
00000280: a00d 15bd d2d4 e6bc b1d1 833d a8ea 283d
00000290: 3315 1dbb 40d2 70bd 8113 70bd 43a4 8ebd
000002a0: e486 323d 32c2 60bd d15a 613c 4017 763d
000002b0: ed58 79bd 0943 53bc 29e0 a3bd faf1 c13c
000002c0: 8eb9 043c ae93 913d 1d36 8a3d 5e40 82bc
000002d0: c932 2abd c998 debc 4da1 0dbd 150e 073d
000002e0: 7174 9a3d 0e05 1f3d 01b3 fabc d1d5 3cbd
000002f0: c9dc 68bc f86b 35bb ecb0 02bd 42e2 8bbd
00000300: 1246 0ebb 4a01 1abd 0d30 ac3d 4f37 103d
00000310: f97e cd3b 27ec e9bc 9393 173d 37d2 92bd
00000320: 986c 78bd 32c8 99bd af4b d2bc bff7 8abd
00000330: 39cb c63b 1dfb 91bd 64dc 68bd f6c2 2cbd
00000340: f883 2ebb 9830 a43d 5026 85bd a9e8 893d
00000350: cbe4 9bbd 73d7 29bc 5979 9bbd 8f4a 9bbd
00000360: 1737 963d abf5 10bd 6195 16bd 79d3 babc
00000370: db90 053b 606d 5c3d 1274 403d 3150 45bd
00000380: d889 54bc bba2 6bbd 8753 8d3b a64e 193d
00000390: 7670 d4bc 530f 7abd 78a4 8e3d 22a6 4abd
000003a0: 19c9 9bbd 68e7 2f3c 1406 90bb cf43 ea3c
000003b0: 1999 60bd dc25 cc3c 9159 a63d 801f a2bd
000003c0: 52b9 a7bd aec8 2abd 7056 8a3d fd61 33bc
000003d0: 618e a13d 675d 22bd 223b c33c 5cee 9fbd
000003e0: c173 2f3d d02b 863d 996e b43c f5e5 0fbd
000003f0: 2dc2 973d 2b69 abbd 41a4 723d 472a 883d
0.04933554 0.024672488 -0.0016988127 -0.07876754 0.043604344 0.031164205 0.065317325 0.06969913
-0.015195273 -0.061064247 0.059405956 0.032866262 0.05580527 0.06513846 0.034373354 -0.07881073
0.070944846 -0.03481097 1.8330298e-05 -0.08231502 -0.071326934 -0.07308936 0.086216226 -0.04899677
0.0763535 0.013523674 0.005971792 0.06793947 0.054108724 -0.090780154 0.06607277 0.013158528
0.076072484 0.059512604 0.025445485 -0.049616564 0.048103377 0.0561071 0.0032399315 0.034858484
0.052106887 -0.07960424 0.0378614 0.011211885 -0.05625119 -0.02970036 -0.01629363 0.025434371
0.07618554 0.013430928 -0.03580522 -0.052614577 0.056569595 0.023095848 0.08771954 0.08553696
0.054017406 0.010759169 -0.05952584 0.06184252 -0.09218964 -0.033117857 -0.08209379 0.07366524
0.058246467 0.07964661 0.0076594222 0.0014916518 -0.02409687 0.023258891 -0.019916167 -0.013928483
-0.029912682 -0.027859777 -0.028244074 0.009113197 0.019172173 0.051629387 0.09336847 -0.069965124
0.07933455 -0.059366547 -0.04743203 -0.07124475 0.07838553 -0.020379342 -0.06823266 0.02325779
-0.046349775 0.04785896 -0.04557563 -0.06265117 0.051583808 0.07058894 -0.024406997 -0.048098244
0.024940813 -0.06455757 0.05880095 -0.021338005 0.025605017 -0.06593449 0.018107187 0.005124482
-0.03611138 0.054577593 0.09276541 0.06719194 -0.07517797 -0.08837754 0.07433845 -0.061755404
0.018218702 -0.058689516 -0.05219001 -0.011209698 0.01590521 0.07653984 0.034937333 -0.016379058
-0.05192083 0.08714899 0.0722704 0.027590828 -0.023017671 -0.04157433 0.04376825 -0.008934341
-0.06689245 0.08448045 0.08118151 -0.080337934 0.054256868 0.036559153 0.0036480916 0.0001254139
-0.088096686 -0.08966611 0.032822516 0.017438166 -0.069308095 -0.04274247 -0.034792475 -0.052241392
-0.083520286 0.021395104 -0.037621252 -0.032367524 -0.08504605 0.07002028 0.08653351 -0.050428867
-0.020400796 -0.06750331 -0.08618391 -0.06388251 -0.013641944 -0.0104394425 -0.007126406 0.027384385
-0.036389947 -0.028177653 0.0643648 0.04123941 -0.0023968935 -0.05879426 -0.05861235 -0.06964924
0.043585673 -0.0548727 0.0137545625 0.060080767 -0.06087582 -0.0128944 -0.080017395 0.023674954
0.00810088 0.07108246 0.067486025 -0.015899833 -0.04155234 -0.027172463 -0.034577657 0.032972414
0.07541741 0.03882318 -0.030602934 -0.04610235 -0.0142127955 -0.0027682763 -0.031907007 -0.06830265
-0.0021709246 -0.037598886 0.084076025 0.035208996 0.00627124 -0.028554989 0.037005972 -0.071690015
-0.060650438 -0.07508887 -0.025670854 -0.06785535 0.0060667065 -0.07127974 -0.056850806 -0.042178117
-0.0026628952 0.08017081 -0.06501448 0.067338295 -0.07611998 -0.0103663085 -0.075915046 -0.0758258
0.07334726 -0.035390537 -0.036763553 -0.022805916 0.002038053 0.053815246 0.046985693 -0.04817218
-0.012972318 -0.05752824 0.0043129358 0.03742852 -0.025932532 -0.06104977 0.06964964 -0.049474843
-0.07606716 0.010736324 -0.004395256 0.028596787 -0.054833505 0.024920397 0.08122552 -0.079161644
-0.08189644 -0.04169529 0.06754768 -0.010948655 0.07888485 -0.039639857 0.023831908 -0.07809135
0.042835 0.06551325 0.022025393 -0.035131413 0.07410083 -0.083696686 0.059238676 0.06648689

lstm.weight_hh_l1 f4 [512, 128]
00000000: 434d 84bd 98ce 56bd a891 083c a567 97bd
00000010: 3146 8cbc 3278 8c3d 9b98 68bd d74b b7bd
00000020: 6213 873d 6bb8 e1bc 5345 523d 5a99 b73d
00000030: 8274 1e3d 7130 3a3d 4893 303d c6d7 d13b
00000040: 4fbe 6dbd f9d8 bcbc 7ed3 33bc 27df 813d
00000050: a98c 1cbc 9ef7 e7bc b61e 0b3c 3dd6 d1bb
00000060: 5d36 763d 5ed5 953d 0ffd a1bd 00c3 ec3b
00000070: ae17 72bd 8295 053c 9145 93bd 1a1f 783c
00000080: a1cf a63d 025e 413d e71e 093d ac39 89bd
00000090: 533e 6e3c 270c f9bc 8eac a43b 0764 93bc
000000a0: 29ca 9cbd 7495 67bd 5aed 49bb ad70 19bd
000000b0: fdac 9f3d ae7a 7e3d 7b99 593d b249 d7bc
000000c0: dcd0 143d 4fdd 3dbd ca90 7739 8803 813d
000000d0: d768 26bc b0f1 5ebd 0829 efbc 21c8 80bd
000000e0: 3bae 833b ee8b b4bb 731b 67bd f39d 0d3c
000000f0: 9c8b 9e3d f82e 063d f2b0 5d3d 2c1e 963d
00000100: f334 8cbc 8b3e 9d3d 896e 293b c610 a2bb
00000110: 9f44 9c3d 05af 26bd 2d17 b4bb fcab 07bd
00000120: 458c e83c 2c05 56bb b80d 1f3d 420a 93bd
00000130: c290 703d 0c40 373c 86bd 333d 21a8 bc3d
00000140: a25b 67bb 7ee0 803d fdbd dcb9 16eb 0dbd
00000150: 8a90 c9bb d0c9 a83c 723f d5bc 4922 1f3c
00000160: 6370 e43b ec98 5abd 5f74 17bd 913b a8bb
00000170: 7538 af3c 4975 33bd e8b1 cf3c 6412 99bd
00000180: 1b1b 00bd aba2 8e3d b083 3e3b 09d5 273d
00000190: e749 443d 2b02 903d 4217 3e3d 8892 6abc
000001a0: 9bf2 83bb 8019 90bc 6d71 85ba 6c5e 0f3d
000001b0: e0d3 0c3c d20c e6bc 5366 67bd 69e9 8f3d
000001c0: f05b e33b 4285 21bc 26c4 3e3d 66cf b73c
000001d0: 40ab 0e3d 87ad bd3d 104e 533c f58b 7d3d
000001e0: c5eb 89bd 70ac 44bd 2403 59bd eb08 41bd
000001f0: 74f4 813c 75c8 8c3b f0b4 013c 5960 a3bb
00000200: 5e98 48bd 2ef2 5fbd 9558 5d3d 5974 a53d
00000210: e157 4abd b9cc 993c 57c0 933d e821 e53c
00000220: f53e ad3d f71e 1a3a 11c5 873c 40a8 e23c
00000230: 0255 a13d 60ac aebc e2b2 c0bd 4c4e 34bb
00000240: f9b4 4a3c 586a 59bd 8746 2ebd ad9c 27bd
00000250: 1b1f 92bd 7505 fc3c 78fe 19bd a746 5f3d
00000260: 98eb 8f3d dbc1 09bd 345b 6a3c bc55 1b3d
00000270: 03ce 05bd 6034 373d 0b69 9fbd c093 3abd
00000280: 5d99 0a3d 0392 a53d b8ae 66bd 9b71 ff3c
00000290: 29cd 333d 5d81 373d ea9b 973d ce4d 553c
000002a0: bc0d 1d3d d1db 85bd 20cc b1bd 1ccd a1bd
000002b0: df80 95bd cba6 2dbd 06d6 fcbc 530a 163d
000002c0: ce6e 6cbd f114 633d c7ab 83bd e614 973b
000002d0: 23ab 6a3b a7df 8dbd acd2 78bd ea80 973d
000002e0: 0181 3cbc b901 dcbc cf16 9fbb a05a 22bd
000002f0: eac5 37bb babb 1d3d 36d3 16bd 648c b43d
00000300: 4d38 de3b edf9 2e3d b4e2 6cbd 5ae6 573d
00000310: 742c a53c 79ab 13bd 2768 943d 0094 7b3d
00000320: e4ad ac3a b88a e9bb 6109 9fbb b33a a83d
00000330: 3fef 4bbd 90b6 88bd 8aad a53d 5f13 a2bd
00000340: 16a9 b83c 0686 efba 3067 9cbd 467f 1ebd
00000350: 26e6 51bd 9edc 77bc 3563 a13a 9783 4cbc
00000360: 0e44 bdbd 1afd 41bd eaa7 99bd 4b0f f4bb
00000370: 5cc9 4abd 7403 c5bc 4a83 3bbd 21ce 60bc
00000380: 9a11 c03c e0b7 71bd 156d 593c 7127 dc3c
00000390: ef47 8ebc 0292 36bb 79b7 c73c d75c b9bd
000003a0: 7c44 90bd 9d86 493d 77f1 a93c 1a15 4dbd
000003b0: f370 093d 9c6d b5bd e0b6 183d 10d9 503d
000003c0: 4a65 fdbc 3119 683c 4056 aa3d e42c 333d
000003d0: 53db 453d afaf 02bd ab1e 0a3d 4351 03bd
000003e0: 6860 ab3c d4ac fbbc 58bd 143c f75b 04bd
000003f0: 0083 883d 8d97 713b 7c6f 953d f1a0 d43b
-0.06460049 -0.052443117 0.008335508 -0.073928155 -0.017123314 0.06858863 -0.05678616 -0.08950012
0.06595494 -0.027553758 0.051335644 0.08964796 0.03868533 0.045456354 0.04310921 0.006403896
-0.05804282 -0.02305268 -0.010975717 0.06341391 -0.00955502 -0.028316315 0.008491209 -0.006403713
0.06011044 0.07316087 -0.07909595 0.0072253942 -0.059104614 0.008153321 -0.07191003 0.015144134
0.08145071 0.047208793 0.033476736 -0.06700453 0.014541226 -0.030401303 0.005025453 -0.017992033
-0.076557465 -0.056539014 -0.0030811639 -0.03746097 0.07796667 0.062128715 0.053124886 -0.026280258
0.036331996 -0.046353634 0.00023609694 0.06299502 -0.010156832 -0.05442971 -0.02919437 -0.062881716
0.0040185726 -0.005509845 -0.056422662 0.008643615 0.07741472 0.032759637 0.054123826 0.073299736
-0.017115092 0.07677945 0.0025853238 -0.004945847 0.07630276 -0.040694255 -0.005495927 -0.033123
0.028387198 -0.0032656891 0.038831443 -0.07179691 0.0587318 0.011184704 0.043881916 0.092117555
-0.003530242 0.062928185 -0.00042103222 -0.034648024 -0.0061512636 0.020604044 -0.02603123 0.009712764
0.0069714054 -0.053368494 -0.036976214 -0.005134054 0.021389225 -0.043813024 0.025353387 -0.07474211
-0.03127585 0.0696462 0.002907019 0.04097465 0.04792204 0.070316635 0.0464089 -0.014317162
-0.0040267236 -0.017590284 -0.0010180898 0.035002157 0.008595437 -0.028082285 -0.05649407 0.07026941
0.00693845 -0.009858431 0.04657378 0.022437762 0.034831285 0.09261613 0.0128970295 0.06190105
-0.067344226 -0.04801601 -0.05298151 -0.047127645 0.015863635 0.0042963573 0.007916674 -0.004985851
-0.048973434 -0.05467432 0.054039557 0.08078832 -0.049400214 0.018774377 0.0721442 0.02797027
0.08459274 0.0005879248 0.01657346 0.027668118 0.07877542 -0.02132243 -0.09409119 -0.002751249
0.012372249 -0.053079933 -0.04254773 -0.040920902 -0.07134839 0.03076432 -0.037596196 0.05451074
0.07027358 -0.03363214 0.014303971 0.03792356 -0.03266717 0.044727683 -0.07783707 -0.04555106
0.033837665 0.0808449 -0.05631897 0.031182101 0.043896828 0.044801105 0.07402785 0.013019038
0.038343176 -0.06536067 -0.08681512 -0.0790045 -0.07299971 -0.042395394 -0.030863773 0.03663094
-0.05772286 0.055439893 -0.06429248 0.0046106456 0.0035807572 -0.06927424 -0.060747787 0.07397635
-0.011505366 -0.02685629 -0.004855014 -0.039637208 -0.002804155 0.038509108 -0.03682252 0.0881584
0.006781614 0.042718817 -0.05783339 0.052709915 0.020162798 -0.0360522 0.07246428 0.06142044
0.0013174382 -0.0071271323 -0.004853413 0.08214321 -0.04978871 -0.06675446 0.080897406 -0.07913851
0.022541564 -0.0018274195 -0.07636869 -0.038695596 -0.051244877 -0.015128283 0.0012312891 -0.012482545
-0.09241496 -0.047360517 -0.0750273 -0.007448112 -0.049508438 -0.024049498 -0.045779504 -0.01372102
0.023445893 -0.059013247 0.013270636 0.026874276 -0.017368285 -0.0027858024 0.024379479 -0.09050911
-0.07044312 0.049200643 0.020745022 -0.050068952 0.033554982 -0.08858797 0.03728378 0.050988257
-0.030932087 0.014166162 0.08317232 0.043743983 0.048304867 -0.031905826 0.033720654 -0.03205992
0.020919994 -0.03072206 0.009078346 -0.032314267 0.06665611 0.0036864013 0.072966546 0.0064889123

lstm.bias_ih_l1 f4 [512]
00000000: 3630 5abd 968d b1bd 7441 733d 5947 87bd
00000010: de02 91bb 7979 53bd c225 e63c f67a a3bd
00000020: 625a 883d fc18 d43b 9b45 6ebc 38ab 76bc
00000030: 085f 4b3c ec35 a8bd 6eee c1bd 0c69 1ebb
00000040: 292f a03c da27 80bd b4fc c13b d2ba 023c
00000050: d19d a6bc f785 9ebd 6a80 96bd ea17 72bc
00000060: 0af6 c33d 510c 45bd 9b6d 3dbd 28b2 c3bc
00000070: 441d e8bc a1b4 8dbd 836b a33d e01e 853c
00000080: 932b 613c d123 983d a5f6 e7bc b2b8 c3bb
00000090: 7aaf b43d 702e afbc 9156 c33c f8b1 843d
000000a0: 3347 59bd 159a 963d 3789 93bd 5e06 a5bc
000000b0: bf64 693d 2281 ff3c 1877 703d 3a5d 393d
000000c0: 0a89 8cbc ee36 583d 836d bbbc df78 0e3d
000000d0: 9d82 ee3c 0456 353d 7337 6e3d fdbe 9e3d
000000e0: a617 85bd b9ba faba 7396 b33d 6d69 86bd
000000f0: db40 9a3d 0c14 753d 0d8d a33d 7744 c73b
00000100: bf80 8bbd 2a1e 38bd e4e8 1b3d 8541 31bd
00000110: 4206 983d 3828 253d 33a2 b83b 53a2 5abd
00000120: 84ce 1ebd 1153 8a3a c767 303d 4ca0 76bd
00000130: e9b5 8abd b9f6 1ebb f742 9abd 1b51 ffbc
00000140: 46a7 68bd d2ad d83c dda8 ea3c 9f35 8ebd
00000150: 0620 ee3b 6b91 7fbb 20d2 8c3d ed55 82bd
00000160: aa47 20bd 7e3b 8d3d 5234 ab3c 88d0 17bd
00000170: 0488 e6bc 89e5 983d 22a4 e8bc 0700 09bd
00000180: 1add 133d 1c30 c9ba 05f7 a3bb 96da 2d3d
00000190: 366c 8dbd 2260 343d a854 f53c 87fb d9bb
000001a0: 2b59 36bd a606 21bd fb0a 8a3c ff9b 14bd
000001b0: c196 4f3d 476c efbb ed17 a6bd 9671 af3c
000001c0: 47d0 52bc 88fb b03d ba30 8f3d d5ad 8abb
000001d0: 8183 453d 68f2 fe3c 9ae9 c43a 99ad a4bb
000001e0: 85df 1ebd bfd9 963d 98de 0a3c 8a68 d53c
000001f0: b707 713d 5c2b 823c 77c1 b73b 3afb 5a3d
00000200: d6af c93c 886c 373d bf2b 66bd f8fd 76bc
00000210: 3182 cebc a50c b1bd 9da4 5a3d 974c 4fbd
00000220: 2620 823d c519 b03b 1815 bdbd a4fe a7bd
00000230: 77fb 6e3c d724 f53c 3a6b b7bd a0ce 303d
00000240: 14ff 943b 6618 afbd 27a7 863d 08e9 813c
00000250: 692f 213d 2039 053c a348 11bd 404f a8bd
00000260: 5975 343d d043 8abc 0e73 5a3d 12a0 ed3c
00000270: 3fde f33c 218f 8a3d fcdc b03b 7a07 97bd
00000280: 372e 97bd 4e34 c83c ef62 1cbd d210 bd3b
00000290: d064 acbd 6b99 d0bd f495 b8bd 9987 3ebd
000002a0: b2fd 8e3d d78e acbd c5be 24bd ba1d 413d
000002b0: 22bc d53a d595 f0bc bb2b 1f3d 01b1 0fbd
000002c0: 25c8 c13c 9068 93bd a51b 28bd c911 c6bd
000002d0: a1c5 5e3d 1993 7cbd 7eb5 bdbb 6f69 163d
000002e0: 41d6 a73d dbca 2dbd 7834 69bd 52bb 62bd
000002f0: 2fab 1cbd deef c5bc 694f b9bd e6c2 93bd
00000300: d11d b73d cf78 a33d 9dce d9b9 b5d5 06bc
00000310: bef1 0d3d a72b 3fbd dc88 b6bc ab69 23bc
00000320: 55d2 903d be01 c5bc 825a fabc d545 91bc
00000330: aba9 abbc 1880 143d d6ca 0f3d 259a 26bc
00000340: c344 873c aca5 3a3d 2ac8 24bd b3c3 823d
00000350: 876a bebc ed73 be3d 5336 2f3c 14a0 bcbc
00000360: 4f6d 05bd a60d 783d 7e1a 0f3d 3eed 46bd
00000370: 6b93 4b3b e5e0 653b efd4 943d 8f38 aebd
00000380: e355 ffbc f8f6 57bd 8100 80bd e95f bf3c
00000390: 5414 2e3d 68f2 b13d fcad a33d 514f be3b
000003a0: 00e3 3fbd 649f 6d3d 7338 36bd 7a99 aa3d
000003b0: 343b 5f3d 452e 23bd 3f17 363c 95b6 bd3b
000003c0: b34c 083d 409a a4bd 0882 02bd 79fc 8abd
000003d0: 0cf1 513d 8116 803d cde6 f7bc 63ac 93bc
000003e0: 6721 833d 732a 19bd 8a07 c0bc f82f 95bd
000003f0: 29ee a4bd 8a3d 573d 45dc 96bd eb55 823d
-0.053268634 -0.086695835 0.059388593 -0.06605405 -0.0044253906 -0.051629517 0.028094176 -0.07982437
0.06657864 0.006472705 -0.014542962 -0.01505547 0.012412794 -0.0821341 -0.09469305 -0.00241715
0.019553738 -0.06257601 0.005920017 0.007979112 -0.020338925 -0.077403955 -0.07348712 -0.014776209
0.095684126 -0.04810745 -0.046247106 -0.023888662 -0.028334267 -0.06919218 0.079794906 0.016250074
0.013743299 0.074287064 -0.028315851 -0.005972945 0.08822532 -0.021384448 0.023844989 0.06479257
-0.053046416 0.073536076 -0.07203906 -0.020144638 0.056980845 0.031189505 0.058707327 0.045254923
-0.017155189 0.05278676 -0.022879368 0.03478324 0.029115016 0.044271484 0.05815835 0.07751272
-0.06498651 -0.0019129134 0.0876893 -0.06563077 0.075319014 0.05983357 0.07985888 0.0060811597
-0.06811666 -0.04495064 0.0380639 -0.043275375 0.074230686 0.04032156 0.00563457 -0.05337746
-0.038771167 0.001055332 0.04306772 -0.060211465 -0.06772978 -0.0024255945 -0.07532304 -0.031166604
-0.05680015 0.026450071 0.028644973 -0.06943821 0.007267001 -0.0038996588 0.06876016 -0.06364045
-0.039130844 0.06896113 0.020898972 -0.037064105 -0.02814103 0.07465655 -0.028398577 -0.03344729
0.03609953 -0.0015349421 -0.0050038123 0.042444788 -0.06905405 0.044036992 0.029947594 -0.006652299
-0.04451863 -0.03931298 0.016850939 -0.036281582 0.05068088 -0.007306609 -0.08110032 0.021416467
-0.01286704 0.08641726 0.06991716 -0.004232148 0.048221115 0.031121448 0.0015023232 -0.0050255773
-0.038787384 0.073657505 0.008475922 0.026050825 0.058845248 0.015889816 0.0056077796 0.053462245
0.024619978 0.044781238 -0.056194063 -0.015075199 -0.025208564 -0.0864499 0.053379644 -0.05061015
0.06353788 0.0053741657 -0.09232539 -0.08202866 0.014586321 0.029924793 -0.08955999 0.043165803
0.0045470092 -0.085495755 0.065748505 0.015858188 0.039351854 0.008131295 -0.035469662 -0.08218241
0.044057224 -0.016878039 0.05333238 0.029006992 0.029769061 0.06765581 0.005397437 -0.07374473
-0.07381862 0.024439003 -0.038180288 0.0057698274 -0.08417666 -0.10185512 -0.09012976 -0.046516035
0.06981982 -0.08425682 -0.040220995 0.04714749 0.0016306678 -0.02936832 0.038860064 -0.035080913
0.023655007 -0.07197678 -0.04104199 -0.09671361 0.054387692 -0.06166372 -0.005789458 0.036721643
0.081951626 -0.042429786 -0.056934804 -0.055354424 -0.03824919 -0.02416223 -0.090483494 -0.07214908
0.08941234 0.07982027 -0.00041543404 -0.008229663 0.03465437 -0.04667249 -0.022282057 -0.009973924
0.07071368 -0.024048682 -0.030560736 -0.017733494 -0.020954927 0.036254972 0.03510555 -0.010168587
0.01651228 0.045568153 -0.040229954 0.06384983 -0.023244156 0.09299455 0.010694104 -0.02302555
-0.032574948 0.06055989 0.034937374 -0.048566096 0.003106321 0.0035076675 0.07267176 -0.085068814
-0.031168884 -0.052725762 -0.06250096 0.023361163 0.042499855 0.086888134 0.07992169 0.005807795
-0.046847343 0.058013335 -0.044487428 0.083300546 0.05449982 -0.039839048 0.011113941 0.0057895877
0.03327627 -0.08037233 -0.03186229 -0.067864366 0.05125527 0.06254292 -0.030261422 -0.018026536
0.06402855 -0.037394 -0.023441095 -0.0728454 -0.08053238 0.052548923 -0.07366232 0.06364044
